Model
________________________________________________________________________________
Layer (type)              Output Shape      Param #  Connected to               
================================================================================
input_1 (InputLayer)      (None, 56)        0                                   
________________________________________________________________________________
embedding_1 (Embedding)   (None, 56, 100)   5038000  input_1[0][0]              
________________________________________________________________________________
dropout_1 (Dropout)       (None, 56, 100)   0        embedding_1[0][0]          
________________________________________________________________________________
conv1d_1 (Conv1D)         (None, 47, 200)   200200   dropout_1[0][0]            
________________________________________________________________________________
global_max_pooling1d_1 (G (None, 200)       0        conv1d_1[0][0]             
________________________________________________________________________________
dense_1 (Dense)           (None, 200)       40200    global_max_pooling1d_1[0][0
________________________________________________________________________________
input_2 (InputLayer)      (None, 133)       0                                   
________________________________________________________________________________
input_3 (InputLayer)      (None, 244)       0                                   
________________________________________________________________________________
dense_2 (Dense)           (None, 64)        12864    dense_1[0][0]              
________________________________________________________________________________
dense_3 (Dense)           (None, 64)        8576     input_2[0][0]              
________________________________________________________________________________
dense_4 (Dense)           (None, 64)        15680    input_3[0][0]              
________________________________________________________________________________
minimum_1 (Minimum)       (None, 64)        0        dense_2[0][0]              
                                                     dense_3[0][0]              
                                                     dense_4[0][0]              
________________________________________________________________________________
dense_5 (Dense)           (None, 64)        4160     minimum_1[0][0]            
________________________________________________________________________________
dense_6 (Dense)           (None, 1)         65       dense_5[0][0]              
================================================================================
Total params: 5,319,745
Trainable params: 5,319,745
Non-trainable params: 0
________________________________________________________________________________


